==========================================================================================
Layer (type:depth-idx)                   Output Shape              Param #
==========================================================================================
CNN                                      [1, 17]                   --
├─Conv1d: 1-1                            [1, 32, 26]               62,912
├─Conv1d: 1-2                            [1, 8, 22]                1,288
├─Linear: 1-3                            [1, 64]                   11,328
├─Linear: 1-4                            [1, 32]                   2,080
├─Linear: 1-5                            [1, 17]                   561
==========================================================================================
Total params: 78,169
Trainable params: 78,169
Non-trainable params: 0
Total mult-adds (Units.MEGABYTES): 1.68
==========================================================================================
Input size (MB): 0.05
Forward/backward pass size (MB): 0.01
Params size (MB): 0.31
Estimated Total Size (MB): 0.37
…
