==========================================================================================
Layer (type:depth-idx)                   Output Shape              Param #
==========================================================================================
RNN                                      [1, 17]                   --
├─LSTM: 1-1                              [1, 30, 16]               26,304
├─Linear: 1-2                            [1, 128]                  61,568
├─Linear: 1-3                            [1, 32]                   4,128
├─Linear: 1-4                            [1, 17]                   561
==========================================================================================
Total params: 92,561
Trainable params: 92,561
Non-trainable params: 0
Total mult-adds (Units.MEGABYTES): 0.86
==========================================================================================
Input size (MB): 0.05
Forward/backward pass size (MB): 0.01
Params size (MB): 0.37
Estimated Total Size (MB): 0.42
…
