==========================================================================================
Layer (type:depth-idx)                   Output Shape              Param #
==========================================================================================
MLP                                      [1, 8]                    --
├─Sequential: 1-1                        [1, 8]                    --
│    └─Linear: 2-1                       [1, 256]                  269,056
│    └─ReLU: 2-2                         [1, 256]                  --
│    └─Linear: 2-3                       [1, 32]                   8,224
│    └─ReLU: 2-4                         [1, 32]                   --
│    └─Linear: 2-5                       [1, 8]                    264
│    └─Tanh: 2-6                         [1, 8]                    --
==========================================================================================
Total params: 277,544
Trainable params: 277,544
Non-trainable params: 0
Total mult-adds (Units.MEGABYTES): 0.28
==========================================================================================
Input size (MB): 0.00
Forward/backward pass size (MB): 0.00
Params size (MB): 1.11
Estimated Total Size (MB): 1.12
…
