==========================================================================================
Layer (type:depth-idx)                   Output Shape              Param #
==========================================================================================
RNN                                      [1, 8]                    --
├─LSTM: 1-1                              [1, 30, 16]               3,392
├─Linear: 1-2                            [1, 128]                  61,568
├─Linear: 1-3                            [1, 32]                   4,128
├─Linear: 1-4                            [1, 8]                    264
==========================================================================================
Total params: 69,352
Trainable params: 69,352
Non-trainable params: 0
Total mult-adds (Units.MEGABYTES): 0.17
==========================================================================================
Input size (MB): 0.00
Forward/backward pass size (MB): 0.01
Params size (MB): 0.28
Estimated Total Size (MB): 0.29
…
