==========================================================================================
Layer (type:depth-idx)                   Output Shape              Param #
==========================================================================================
CNN                                      [1, 6]                    --
├─Conv1d: 1-1                            [1, 32, 26]               3,712
├─Conv1d: 1-2                            [1, 8, 22]                1,288
├─Linear: 1-3                            [1, 64]                   11,328
├─Linear: 1-4                            [1, 32]                   2,080
├─Linear: 1-5                            [1, 6]                    198
==========================================================================================
Total params: 18,606
Trainable params: 18,606
Non-trainable params: 0
Total mult-adds (Units.MEGABYTES): 0.14
==========================================================================================
Input size (MB): 0.00
Forward/backward pass size (MB): 0.01
Params size (MB): 0.07
Estimated Total Size (MB): 0.09
…
