==========================================================================================
Layer (type:depth-idx)                   Output Shape              Param #
==========================================================================================
MLP                                      [1, 6]                    --
├─Sequential: 1-1                        [1, 6]                    --
│    └─Linear: 2-1                       [1, 256]                  176,896
│    └─ReLU: 2-2                         [1, 256]                  --
│    └─Linear: 2-3                       [1, 32]                   8,224
│    └─ReLU: 2-4                         [1, 32]                   --
│    └─Linear: 2-5                       [1, 6]                    198
│    └─Tanh: 2-6                         [1, 6]                    --
==========================================================================================
Total params: 185,318
Trainable params: 185,318
Non-trainable params: 0
Total mult-adds (Units.MEGABYTES): 0.19
==========================================================================================
Input size (MB): 0.00
Forward/backward pass size (MB): 0.00
Params size (MB): 0.74
Estimated Total Size (MB): 0.75
…
