==========================================================================================
Layer (type:depth-idx)                   Output Shape              Param #
==========================================================================================
RNN                                      [1, 6]                    --
├─LSTM: 1-1                              [1, 30, 64]               22,784
├─Linear: 1-2                            [1, 128]                  245,888
├─Linear: 1-3                            [1, 32]                   4,128
├─Linear: 1-4                            [1, 6]                    198
==========================================================================================
Total params: 272,998
Trainable params: 272,998
Non-trainable params: 0
Total mult-adds (Units.MEGABYTES): 0.93
==========================================================================================
Input size (MB): 0.00
Forward/backward pass size (MB): 0.02
Params size (MB): 1.09
Estimated Total Size (MB): 1.11
…
