…
    (1): ReLU()
    (2): Linear(in_features=256, out_features=256, bias=True)
    (3): ReLU()
    (4): Linear(in_features=256, out_features=256, bias=True)
    (5): ReLU()
  )
  (mu_layer): Linear(in_features=256, out_features=17, bias=True)
  (log_std_layer): Linear(in_features=256, out_features=17, bias=True)
)
==========================================================================================
Layer (type:depth-idx)                   Output Shape              Param #
==========================================================================================
SquashedGaussianMLPActor                 [1, 17]                   --
├─Sequential: 1-1                        [1, 256]                  --
│    └─Linear: 2-1                       [1, 256]                  100,864
│    └─ReLU: 2-2                         [1, 256]                  --
│    └─Linear: 2-3                       [1, 256]                  65,792
│    └─ReLU: 2-4                         [1, 256]                  --
│    └─Linear: 2-5                       [1, 256]                  65,792
│    └─ReLU: 2-6                         [1, 256]                  --
├─Linear: 1-2                            [1, 17]                   4,369
├─Linear: 1-3                            [1, 17]                   4,369
==========================================================================================
Total params: 241,186
Trainable params: 241,186
Non-trainable params: 0
Total mult-adds (Units.MEGABYTES): 0.24
==========================================================================================
Input size (MB): 0.00
Forward/backward pass size (MB): 0.01
Params size (MB): 0.96
Estimated Total Size (MB): 0.97
…
    (2): Linear(in_features=256, out_features=256, bias=True)
    (3): ReLU()
    (4): Linear(in_features=256, out_features=256, bias=True)
    (5): ReLU()
    (6): Linear(in_features=256, out_features=1, bias=True)
    (7): Identity()
  )
)
==========================================================================================
Layer (type:depth-idx)                   Output Shape              Param #
==========================================================================================
MLPQFunction                             [1]                       --
├─Sequential: 1-1                        [1, 1]                    --
│    └─Linear: 2-1                       [1, 256]                  105,216
│    └─ReLU: 2-2                         [1, 256]                  --
│    └─Linear: 2-3                       [1, 256]                  65,792
│    └─ReLU: 2-4                         [1, 256]                  --
│    └─Linear: 2-5                       [1, 256]                  65,792
│    └─ReLU: 2-6                         [1, 256]                  --
│    └─Linear: 2-7                       [1, 1]                    257
│    └─Identity: 2-8                     [1, 1]                    --
==========================================================================================
Total params: 237,057
Trainable params: 237,057
Non-trainable params: 0
Total mult-adds (Units.MEGABYTES): 0.24
==========================================================================================
Input size (MB): 0.00
Forward/backward pass size (MB): 0.01
Params size (MB): 0.95
Estimated Total Size (MB): 0.96
…
